Using TensorFlow backend.

Reading text from data\roc_text_mid.txt

Corpus Length: 176326
Vocab Size: 50

Dictionary Map: 8 | ,

Number of sequences: 176286

Vectorization...

X: (176286, 40, 50)
y: (176286, 50)

Building Model...

_________________________________________________________________
Layer (type)                 Output Shape              Param #
=================================================================
lstm_1 (LSTM)                (None, 40, 64)            29440
_________________________________________________________________
dropout_1 (Dropout)          (None, 40, 64)            0
_________________________________________________________________
lstm_2 (LSTM)                (None, 40, 64)            33024
_________________________________________________________________
dropout_2 (Dropout)          (None, 40, 64)            0
_________________________________________________________________
lstm_3 (LSTM)                (None, 40, 64)            33024
_________________________________________________________________
dropout_3 (Dropout)          (None, 40, 64)            0
_________________________________________________________________
lstm_4 (LSTM)                (None, 64)                33024
_________________________________________________________________
dropout_4 (Dropout)          (None, 64)                0
_________________________________________________________________
dense_1 (Dense)              (None, 50)                3250
_________________________________________________________________
activation_1 (Activation)    (None, 50)                0
=================================================================
Total params: 131,762
Trainable params: 131,762
Non-trainable params: 0
_________________________________________________________________
None

--------------------------------------------------
Iteration  1
Epoch 1/1
2017-08-10 02:54:30.631244: W c:\tf_jenkins\home\workspace\release-win\m\windows-gpu\py\35\tensorflow\core\platform\cpu_feature_guard.cc:45] The TensorFlow library wasn't compiled to use SSE instructions, but these are available on your machine and could speed up CPU computations.
…
